cheackpoint/checkpoint.pt (torch, 271188 bytes, 13 tensors)

liner.weight f4 [128, 128]
0	0x3cbac8c4	0.02280081
1	0x3cadd78b	0.021220943
2	0xbe0ff4de	-0.14058253
3	0x3e705307	0.23469172
4	0xbe34b44b	-0.17646901
5	0xbbde7bb5	-0.0067896494
6	0xbdaeb8af	-0.08531319
7	0xbe1dfc6d	-0.15428324
8	0xbc474fc6	-0.012165016
9	0x3d0229c2	0.031778105
10	0x3df536b5	0.11973325
11	0xbe067f5c	-0.13134521
12	0xbdcc3ef9	-0.099729486
13	0xbdf35c83	-0.118828796
14	0x3ca4ff23	0.02014119
15	0xbdc1fa2b	-0.09471544
16	0x3caa594b	0.020794531
17	0x3e52cd39	0.20586099
18	0x3e5780b3	0.21045189
19	0x3cf95290	0.030434877
20	0x3d78fa72	0.06078572
21	0x3d600106	0.054688476
22	0x3a60aa7e	0.0008570327
23	0x3e2d32de	0.16913936
24	0x3dd9ec41	0.10640765
25	0xbd81139a	-0.06302567
26	0xbc76bd81	-0.01505983
27	0x3d329be4	0.0436057
28	0xbe62e159	-0.22156276
29	0x3da9b3b6	0.0828623
30	0x3db5b8a4	0.08873108
31	0x3e305935	0.1722153
32	0x3dd8c944	0.10585263
33	0x3d8e9991	0.06962884
34	0x3e59f308	0.21284115
35	0xbd1e0999	-0.03858337
36	0xbe2991c7	-0.16559516
37	0xbd351419	-0.04420862
38	0xbe7fafa3	-0.24969344
39	0x3cdb6ffe	0.0267868
40	0xbde18e2b	-0.110134445
41	0x3d8fa75c	0.07014343
42	0x3b8ff9c9	0.0043937904
43	0x3e0e529c	0.138987
44	0x3d044697	0.032293882
45	0xbb68f2df	-0.0035545153
46	0xbdb79dc2	-0.08965637
47	0xbe2a2861	-0.16616966
48	0x3d9f9112	0.07791342
49	0x3e0e7a3b	0.13913815
50	0x3e0e7857	0.13913094
51	0xbc86d61b	-0.016459515
52	0xbdbf65c9	-0.09345586
53	0x3dec1831	0.11528052
54	0x3cecb990	0.028897077
55	0xbc276d2e	-0.010218902
56	0xbd26858a	-0.040654697
57	0x3e34cc61	0.1765609
58	0xbc90cea0	-0.017676651
59	0xbe170bdf	-0.14750622
60	0x3d869b97	0.06572645
61	0x3cdfc8f2	0.027317498
62	0xbe22c19d	-0.1589417
63	0xbdd235f2	-0.102641955
64	0xbcfa5b2d	-0.030561054
65	0x3d857a57	0.06517475
66	0xbdc2a9cc	-0.095050424
67	0xbdb7090c	-0.089372724
68	0xbceef962	-0.02917165
69	0x3df4ef7b	0.1195974
70	0x3dd474ea	0.10373862
71	0x3e44419e	0.19165656
72	0xbd6cb5d6	-0.0577906
73	0xbd7a0d7a	-0.06104801
74	0x3e2398fa	0.15976325
75	0xbd467404	-0.048450485
76	0x3deb7a23	0.11497905
77	0xbe214dc7	-0.15752326
78	0x3dd0029b	0.10156747
79	0x3d09c377	0.033633675
80	0x3dc8d681	0.098065384
81	0xbdadb015	-0.084808506
82	0x3e259873	0.16171436
83	0x3d1294f4	0.035786584
84	0xbcfe514e	-0.031044628
85	0x3ae460b9	0.0017423845
86	0xbe93bb9d	-0.28854075
87	0x3df2c785	0.118544616
88	0x3d885ef9	0.066587396
89	0x3cd7dcbd	0.026350373
90	0xbdb95544	-0.09049466
91	0x3d44b4ac	0.048023865
92	0x3cfda28b	0.030961296
93	0x3ddd6615	0.10810486
94	0xbe03f25b	-0.1288542
95	0x398ba6de	0.00026636472
96	0x3e0a1d3b	0.13487713
97	0x3d582ee6	0.0527791
98	0x3d489959	0.04897437
99	0x3d48217a	0.04886005
100	0x3b833e4d	0.0040052296
101	0xbd82d5fe	-0.06388472
102	0xbc46f5b3	-0.01214354
103	0xbc65682f	-0.01400189
104	0xbd5ab245	-0.053392667
105	0xbd29b875	-0.041435678
106	0x3dba852e	0.09107433
107	0x3d7ada6c	0.06124346
108	0x3dd55d3c	0.10418174
109	0x3cb47096	0.022026341
110	0x3e87001b	0.26367268
111	0xbc1df8d4	-0.009641845
112	0xbdb89a8a	-0.09013851
113	0x3c6f4e88	0.014606126
114	0x3ca8b160	0.020592391
115	0xbc9b8e37	-0.018988712
116	0xbdc8941c	-0.097938746
117	0xbdd8c8f7	-0.10585206
118	0x3df74783	0.12074187
119	0xbcfdf467	-0.03100033
120	0xbd9eafcc	-0.07748374
121	0xbd993753	-0.074812554
122	0x3e4f8908	0.20267117
123	0xbc86384b	-0.016384264
124	0x3d71e3cb	0.05905513
125	0xbcdd32b1	-0.02700171
126	0xbd628d08	-0.05531028
127	0x3dcc9a1a	0.0999033
128	0x3c88915f	0.01667088
129	0xbddb5542	-0.10709621
130	0xbc919a4f	-0.017773775
131	0x3b68bf52	0.0035514426
132	0xbcab5b74	-0.020917632
133	0xbc7cda1f	-0.0154328635
134	0xbdb0fb9b	-0.0864174
135	0xbd4c0318	-0.049807638
136	0xbbe0af0c	-0.0068568047
137	0x3d484e45	0.04890277
138	0xbceb0eaf	-0.028693525
139	0xbdb9fec2	-0.09081794
140	0x3d3850cb	0.044998925
141	0xbd80c49f	-0.062875025
142	0xbd01fbd9	-0.03173432
143	0x3e741e58	0.238397
144	0x3db4754b	0.08811434
145	0xbdf03222	-0.11728312
146	0xbd671aa2	-0.056421883
147	0x3d893082	0.06698705
148	0xbe5e4ea5	-0.21709688
149	0xbe7b26a9	-0.24526466
150	0xbdc68def	-0.096950404
151	0xb8a9a2c7	-8.0888676e-05
152	0xbd1a588a	-0.037682094
153	0x3e222d05	0.15837486
154	0x3cbaaaae	0.022786465
155	0xbce46a66	-0.027882766
156	0xbdeda512	-0.1160375
157	0xbd8cbadd	-0.06871579
158	0xbe073ffa	-0.13207999
159	0xbc1845d1	-0.009293989
160	0x3dfb018c	0.122561544
161	0x3e38f6c5	0.18062885
162	0xbe4df125	-0.2011152
163	0x3ddbfe56	0.1074187
164	0x3d7994f0	0.060933053
165	0x3dca46f2	0.09876813
166	0xbd80f5ae	-0.0629686
167	0x3e14b12d	0.14520712
168	0x3e4dfc37	0.20115744
169	0x3d8f3410	0.06992352
170	0xbdb4a4ae	-0.08820473
171	0xbe27ab3a	-0.16373911
172	0xbdabb5ca	-0.08384283
173	0xbc4a396b	-0.012342791
174	0xbd9fc884	-0.07801917
175	0xbe17217d	-0.14758869
176	0xbe43634d	-0.19080849
177	0x3d133bb3	0.035945605
178	0x3dced0e2	0.10098435
179	0x3c870209	0.016480463
180	0x3c8f0502	0.017458443
181	0xbd823ad1	-0.063588746
182	0x3d9a0506	0.075204894
183	0xbe1fa339	-0.15589608
184	0xbde1e056	-0.11029117
185	0xbd92425f	-0.071415655
186	0x3d0ae415	0.033908922
187	0x3db3f264	0.08786467
188	0xbd6ce8da	-0.057839252
189	0xbe14751a	-0.14497796
190	0xbda84782	-0.08216764
191	0xbdf71327	-0.120642
192	0x3d650114	0.05590923
193	0x3dc21312	0.094762936
194	0xbe27e0db	-0.1639437
195	0xbd19eee0	-0.037581325
196	0xbcb24729	-0.021762447
197	0xbd924ea8	-0.07143909
198	0x3d53ee05	0.051740665
199	0x3ddd8fdc	0.108184546
200	0xbdce8e40	-0.10085726
201	0x3c9d44e4	0.019197889
202	0x3de0902c	0.109649986
203	0x3cccbbad	0.024991835
204	0xbe2cf01c	-0.1688847
205	0x3d9d95d3	0.07694592
206	0xbb846139	-0.00403991
207	0x3d8db02f	0.0691837
208	0xbd8f716b	-0.07004055
209	0x3da3a145	0.07989744
210	0xbbb6b651	-0.005575933
211	0xbc993339	-0.018701183
212	0x3d8020d9	0.06256265
213	0xbdb1b784	-0.08677581
214	0xbdce3326	-0.100683495
215	0xbc0c6015	-0.00856783
216	0xbc999fa5	-0.018752882
217	0xbd3f9141	-0.046769384
218	0xbd32b9cc	-0.04363422
219	0x3d5daf3d	0.0541222
220	0xbe095d14	-0.13414413
221	0xbcf732db	-0.030175617
222	0x3d8381c4	0.06421235
223	0xbd080f72	-0.033217855
224	0x3e80cd5c	0.25156677
225	0xbd318a7a	-0.043344952
226	0xbd1b7ede	-0.037962787
227	0xbd9b8b9d	-0.075949885
228	0x3de01ee8	0.10943395
229	0xbd659922	-0.056054242
230	0xbe340b71	-0.1758249
231	0x3d33d6e5	0.04390611
232	0xbdf35012	-0.118805066
233	0xbbc7ff15	-0.006103406
234	0x3d5cbf65	0.053893466
235	0xbe02f415	-0.12788422
236	0x3dc7929a	0.09744759
237	0xbd35700c	-0.04429631
238	0xbe262171	-0.16223694
239	0x3da926cd	0.08259354
240	0x3cebd814	0.028789558
241	0x3d3814a7	0.04494157
242	0xbe1c49a6	-0.1526247
243	0x3d0b5de1	0.034025077
244	0x3d9749b6	0.07387106
245	0x3dd79921	0.10527254
246	0xbe1a68c0	-0.15079021
247	0xbcf0ecc4	-0.029409774
248	0x3d5c7af1	0.053828184
249	0xbd302976	-0.04300829
250	0xbce65074	-0.028114535
251	0xbe14160b	-0.14461534
252	0xbcf42142	-0.029801015
253	0xbc52a9da	-0.012857879
254	0xbc9d383f	-0.01919186
255	0x3e93a8fe	0.28839868

liner.bias f4 [128]
0	0xbd82448e	-0.06360732
1	0x3d76b0b6	0.06022712
2	0xbd867e5c	-0.0656707
3	0xbda332b3	-0.079686545
4	0x3d492333	0.049105834
5	0xbe44a539	-0.19203652
6	0x3ca4ce42	0.020117883
7	0x3cf5586e	0.029949393
8	0x3cd5a97c	0.026081793
9	0xbe339fa0	-0.17541361
10	0x3d8e1c41	0.06938983
11	0x3c9d327b	0.01918911
12	0xbd87685b	-0.06611701
13	0x3d807529	0.062723465
14	0x3ba84005	0.005134585
15	0x3d07c4a6	0.033146523
16	0xbdd23e8f	-0.10265838
17	0x3cc17e82	0.023619894
18	0x3e158efb	0.14605324
19	0x3d7d34ff	0.06181812
20	0xbc280162	-0.010254236
21	0xbe18caf4	-0.1492117
22	0xbde84601	-0.11341477
23	0x3da00c33	0.07814827
24	0x3e13d906	0.14438257
25	0xbdf74d75	-0.12075321
26	0x3da6bda8	0.08141643
27	0xbdef5fba	-0.1168818
28	0x3d2d9d46	0.042386316
29	0x3c7281e3	0.014801475
30	0x3d48427c	0.04889153
31	0xbe08d078	-0.13360775
32	0x3e106739	0.14101876
33	0xbd9faafc	-0.077962846
34	0xbb1ca28c	-0.0023900596
35	0x3d51bba2	0.05120433
36	0xbe0e9b68	-0.1392647
37	0xbdddb38a	-0.1082526
38	0xbcc50db4	-0.024054386
39	0xbd337804	-0.043815628
40	0xbde07274	-0.1095933
41	0x3b5a4e74	0.0033310922
42	0xbdb872b9	-0.090062566
43	0x3c8f865f	0.017520128
44	0xbe27020d	-0.16309376
45	0x3e53741c	0.20649761
46	0x3df72b86	0.12068848
47	0xbe120693	-0.1426032
48	0xbd9d351c	-0.076761454
49	0x3e21ee4c	0.1581356
50	0x3de5bb1d	0.1121733
51	0x3ec1496f	0.37751338
52	0x3dfeeb0e	0.12447177
53	0x3cafbe24	0.02145297
54	0x3d4e60a4	0.050385132
55	0xbb73fa80	-0.0037228167
56	0xbdb82361	-0.08991123
57	0x3c7e7715	0.015531321
58	0xbdc4728a	-0.09592159
59	0xbd06fbb7	-0.032954898
60	0x3e67de63	0.22643428
61	0xbe48953e	-0.19588181
62	0x3d963dd8	0.073360145
63	0xbd789ab7	-0.060694423
64	0xbcefe4d0	-0.029283911
65	0x3dfbee94	0.123013645
66	0x3be178cc	0.006880855
67	0xbe6c9458	-0.23103464
68	0xbe179b8e	-0.14805433
69	0x3d8aeca1	0.06783415
70	0xbcb90593	-0.022585666
71	0x3e049e8a	0.12951103
72	0xbc9884e6	-0.018618058
73	0xbe1bcb77	-0.15214334
74	0xbda56404	-0.08075717
75	0xbc9c4930	-0.019077867
76	0xbcbf139a	-0.023324776
77	0x3cdf9f12	0.02729753
78	0xbdc65c0e	-0.09685527
79	0xbdb92b0b	-0.09041413
80	0xbc613395	-0.013745208
81	0xbd5612d7	-0.05226406
82	0x3df147b4	0.117812544
83	0x3e2a9c6e	0.16661236
84	0x3ddc9ba3	0.10771873
85	0xbb3be65d	-0.0028671243
86	0xbd0b70e2	-0.0340432
87	0x3e4e940c	0.20173663
88	0xbdd72284	-0.1050463
89	0xba5fbfcb	-0.0008535354
90	0x3dab2af0	0.08357799
91	0x3dc23c48	0.09484154
92	0xbd80b462	-0.06284405
93	0x3dedca4f	0.11610853
94	0x3c334047	0.010940618
95	0x3cf7ad65	0.030234048
96	0xbebd11d6	-0.3692767
97	0xbd942ef1	-0.07235516
98	0xbe9fb720	-0.311944
99	0x3d55b058	0.052170128
100	0xbd12d824	-0.03585066
101	0x3e3b2328	0.1827513
102	0xbcd15fc2	-0.025558356
103	0xbcc09cfd	-0.023512358
104	0xbe26aa7f	-0.16275977
105	0xbc81813e	-0.015808698
106	0xbcb8849b	-0.022524169
107	0x3dd0fede	0.10204862
108	0x3cd46d2f	0.025930969
109	0xbd38450c	-0.044987723
110	0x3db9e52d	0.09076915
111	0xbdae056c	-0.08497128
112	0x3d21ff32	0.039550014
113	0x3bba7ad8	0.0056909136
114	0xbdac378f	-0.084090345
115	0x3d8bf05c	0.06832954
116	0xbd8f3a62	-0.069935575
117	0xbdd46113	-0.10370078
118	0xbe36423d	-0.17798705
119	0x3dd48653	0.10377183
120	0xbcfceb88	-0.030874029
121	0xbce6e8e8	-0.02818723
122	0xbd910136	-0.07080309
123	0xbdb97bd3	-0.09056821
124	0x3e3b3aae	0.18284103
125	0x3bca1d1b	0.0061680204
126	0x3cf64f35	0.030067066
127	0x3b76c651	0.0037654827

lstm.weight_ih_l0 f4 [128, 128]
0	0xbe387331	-0.18012692
1	0xbdcee0b4	-0.101014525
2	0xbd9c8b6e	-0.076437816
3	0xba8a0d42	-0.0010532516
4	0xbdd616ad	-0.10453544
5	0xbea47d58	-0.3212688
6	0x3e339eb1	0.17541005
7	0x3e777a13	0.24167661
8	0x3d7f358c	0.062306926
9	0x3d3a5752	0.04549343
10	0x3c92ee84	0.017935999
11	0xbdcfe287	-0.101506285
12	0xbea418bf	-0.3205013
13	0xbe887415	-0.26651064
14	0x3ce8ca14	0.02841667
15	0x3e9b222f	0.30299518
16	0x3d0b2186	0.033967517
17	0x3d6362ac	0.055514023
18	0xbd36d131	-0.044633094
19	0x3d0c124a	0.03419713
20	0xbe43aa84	-0.19108015
21	0xbd3b08c6	-0.045662664
22	0x3bb276ca	0.0054462897
23	0x3a85b79e	0.0010201817
24	0xbd95ed5d	-0.07320664
25	0xbd86f326	-0.06589346
26	0xbc9d5d1a	-0.019209433
27	0x3e090a2c	0.13382787
28	0xbd9cff0d	-0.076658346
29	0xbd1cb666	-0.038259886
30	0xbe080782	-0.13284114
31	0x3e201fb6	0.15637097
32	0x3e59edf6	0.21282181
33	0x3ce349b4	0.027745105
34	0xbc902f77	-0.017600758
35	0xbe057d07	-0.13035975
36	0x3e58739d	0.21137853
37	0xbe188317	-0.14893757
38	0xbe67b4d5	-0.22627576
39	0x3dd7999d	0.10527346
40	0xbda87bed	-0.08226762
41	0x3ddf90be	0.10916279
42	0xb9300f65	-0.00016790403
43	0xbdc82e4d	-0.09774456
44	0x3b171532	0.0023053405
45	0xbd570843	-0.052498113
46	0xbd8d07f4	-0.068862826
47	0xbe2354b0	-0.15950274
48	0x3cb696e9	0.022288756
49	0xbd6e8d7c	-0.0582404
50	0x3db3001a	0.08740254
51	0xbd21cccd	-0.039501954
52	0xbdf5e184	-0.12005904
53	0x3df5ed58	0.1200816
54	0x3d91813e	0.07104729
55	0xbd2525d0	-0.040319264
56	0x3dd138d7	0.102159195
57	0xbe1bebfa	-0.15226737
58	0xbde48103	-0.111574195
59	0x3e28e729	0.1649443
60	0x3d97e1c3	0.074161075
61	0x3c8b9166	0.017037105
62	0x3c97a802	0.01851273
63	0x3d3c43f4	0.045963243
64	0xbe7ab283	-0.2448216
65	0xbc8cec77	-0.017202599
66	0xbd26ad0b	-0.04069237
67	0xbdf01e9e	-0.1172459
68	0x3e205532	0.156575
69	0xbc2bc29f	-0.010483413
70	0x3e3d1fcc	0.18469161
71	0xbdacaee2	-0.08431794
72	0x3e56b476	0.20967278
73	0x3d4a5bb8	0.049403876
74	0xbd83c520	-0.06434083
75	0xbe09c880	-0.13455391
76	0xbd88570c	-0.06657228
77	0x3dc49b22	0.09599902
78	0x3e2ce1cd	0.16883011
79	0xbd47d820	-0.048790097
80	0xbd4063b1	-0.046970073
81	0xbe0134f6	-0.12617859
82	0xbdab5892	-0.08366503
83	0xbc7c4b92	-0.015398877
84	0x3d90d550	0.07071936
85	0x3c6b4ba9	0.0143613005
86	0x3d8f5353	0.06998315
87	0xbde7e22c	-0.11322436
88	0xbd86e84e	-0.06587277
89	0x3b82a16e	0.003986529
90	0x3caa6eef	0.02080485
91	0x3e22ebbd	0.1591024
92	0xbdb16f31	-0.08663786
93	0xbd15509b	-0.036453824
94	0x3dba799f	0.09105229
95	0x3e6fe50e	0.23427221
96	0xbe0d24c6	-0.13783559
97	0x3d2255ff	0.039632794
98	0xbe3e77b1	-0.18600346
99	0xbd41093e	-0.047127955
100	0xbdacfbc0	-0.08446455
101	0x3dcb4b04	0.099264175
102	0x3cfa7efb	0.030578127
103	0xbe3e2b66	-0.18571243
104	0x3d0ab88f	0.033867415
105	0xbd730428	-0.059330136
106	0xbdac8707	-0.08424192
107	0xbd2b474a	-0.041816033
108	0xbd8114df	-0.06302809
109	0x3e3f3bf3	0.18675213
110	0x3e47ddd6	0.19518217
111	0xbe1e35a8	-0.15450156
112	0xbc08dd2b	-0.008353512
113	0xbe156ad3	-0.14591531
114	0xbe18a8f4	-0.149082
115	0x3c9bf01a	0.019035388
116	0x3d186500	0.037205696
117	0xbd866157	-0.06561535
118	0x3e031ab2	0.12803152
119	0xbd0f20e6	-0.034943484
120	0xbe0805d9	-0.1328348
121	0xbca0a07c	-0.019607775
122	0x3e1c0095	0.15234597
123	0xbe770af9	-0.2412528
124	0x3cd3ca8e	0.025853422
125	0xbbcf1b86	-0.0063204197
126	0x3d89629a	0.0670826
127	0x3dcfe225	0.101505555
128	0x3d803464	0.06259993
129	0xbd25149d	-0.04030286
130	0x3dc6074b	0.0966936
131	0x3d4202c5	0.047365922
132	0x3e0e4f35	0.13897403
133	0x3d77091a	0.060311414
134	0x3b1dfd88	0.0024107415
135	0x3c58298a	0.013193497
136	0x3da5f0be	0.081025586
137	0x3df621fe	0.12018202
138	0x3e05b537	0.13057409
139	0x3c9e8cdc	0.019354276
140	0x3e4678b4	0.19381982
141	0x3d6927c9	0.056922708
142	0x3d965090	0.07339585
143	0xbd63c4a7	-0.055607464
144	0xbe322acd	-0.1739914
145	0xbdbb2025	-0.091369905
146	0x3e53ae00	0.20671844
147	0xbd8803db	-0.0664136
148	0xbcb9343f	-0.02260792
149	0x3d07c111	0.033143107
150	0xbd7c9081	-0.061661247
151	0x3e3ce34d	0.18446083
152	0x3d79f02f	0.061020073
153	0xbd6d0df9	-0.057874653
154	0x3eaf13cf	0.341948
155	0xbea9c2f8	-0.33156562
156	0xbd142e8a	-0.036177196
157	0x3b4ab58b	0.0030930962
158	0x3e4c1c37	0.19932638
159	0x3b95d322	0.004572288
160	0xbce513da	-0.027963568
161	0x3d1498a8	0.036278397
162	0xbe0b9b57	-0.13633476
163	0x3d85bbfc	0.06529996
164	0xbde71af6	-0.11284439
165	0x3e307832	0.17233351
166	0xbb78fe20	-0.0037993267
167	0xbd473340	-0.04863286
168	0x3d4ddfee	0.050262384
169	0xbe172784	-0.14761168
170	0x3d47d9c6	0.04879167
171	0x3deef3ba	0.11667581
172	0x3cea270e	0.028583076
173	0x3e2f6f32	0.17132261
174	0x3dd6eee4	0.104947835
175	0xbe0dd56d	-0.13850947
176	0x3c86557a	0.01639818
177	0x3dad0512	0.08448233
178	0xbe794391	-0.24342181
179	0x3e596a84	0.21232039
180	0x3e91eea8	0.28502393
181	0x3dc5a7db	0.096511565
182	0x3d9c16cc	0.07621536
183	0xbced8db4	-0.028998233
184	0x3c9d265c	0.01918333
185	0xbd6a42e1	-0.057192687
186	0x3dc76f9a	0.09738083
187	0xbdd7fbc5	-0.10546068
188	0x3e268585	0.16261871
189	0x3e78a900	0.24283218
190	0xbd54049f	-0.05176222
191	0xbe62d4b9	-0.2215146
192	0x3df1ab18	0.11800212
193	0x3d8e5976	0.06950657
194	0xbe89dfaa	-0.26928455
195	0xbce48353	-0.027894652
196	0xbe3a1bb8	-0.18174636
197	0x3e14f7e1	0.14547683
198	0x3d557b2c	0.05211942
199	0xbc73e7bf	-0.014886796
200	0x3e02f9f5	0.12790664
201	0xbd1517e3	-0.036399733
202	0x3e30def6	0.17272553
203	0x3ce02298	0.027360246
204	0x3e4ac517	0.19801746
205	0xbe234ebc	-0.15948004
206	0xbe473df7	-0.19457231
207	0x3dd05768	0.101729214
208	0xbe4bd390	-0.19904923
209	0xbe14c0b5	-0.14526637
210	0xbd73b33f	-0.059497114
211	0x3bfb5ae5	0.0076707476
212	0x3e20bf59	0.15697993
213	0xbdf1a529	-0.1179908
214	0xbc84833a	-0.016175855
215	0x3dd34116	0.103151485
216	0xbd02c1e9	-0.03192321
217	0x3d2c9bc1	0.042140726
218	0x3da46763	0.08027532
219	0x3dce1d18	0.10064143
220	0x3c04e2d7	0.008110723
221	0xbd396f78	-0.04527232
222	0xbce8b8d6	-0.02840845
223	0x3c6a6e7c	0.014308568
224	0xbcf7f69e	-0.030268963
225	0xbc3e7a00	-0.011625767
226	0x3ddcae7c	0.10775468
227	0xbd1e942d	-0.03871553
228	0x3dff3c96	0.12462728
229	0xbe2df72f	-0.16988824
230	0xbd8a9bd1	-0.06768001
231	0x3e627d12	0.22118023
232	0xbd1fc59d	-0.039006818
233	0x3e1a296e	0.15054867
234	0x3d6bf57d	0.057607163
235	0x3e7edfe2	0.24890092
236	0xbda1346a	-0.07871325
237	0xbe10b640	-0.14132023
238	0xbd5ddfc0	-0.054168463
239	0x3e1e778e	0.15475294
240	0x3e26d212	0.16291073
241	0x3db6263b	0.08894011
242	0xbe59064f	-0.21193813
243	0x3d322624	0.043493405
244	0xbe88324b	-0.2660087
245	0xbe25155e	-0.16121432
246	0xbdf26108	-0.118349135
247	0xbe03f016	-0.12884554
248	0x3cc9a5be	0.024615165
249	0xbd2613f2	-0.040546365
250	0x3dc6ef48	0.09713608
251	0xbe1d403d	-0.15356536
252	0xbc0080a2	-0.007843168
253	0x3d93e6d7	0.072217636
254	0x3e04d3f0	0.12971473
255	0x3e4966d0	0.19668126

lstm.weight_hh_l0 f4 [128, 128]
0	0x39d1a12d	0.00039983672
1	0xbd116cc9	-0.035504136
2	0x3d4ad506	0.04951956
3	0xbd33ac67	-0.043865588
4	0x3daf6777	0.08564656
5	0x3d11d515	0.0356036
6	0x3e6e2d9b	0.23259585
7	0x3d5891bd	0.05287336
8	0xbcf02d20	-0.029318392
9	0x3dad057d	0.084483124
10	0xbe0b7118	-0.1361736
11	0xbcae48cf	-0.021274952
12	0x3cc66cda	0.024221826
13	0xbe52a70e	-0.20571539
14	0x3dbb7e1e	0.09154914
15	0xbd80ee0f	-0.06295406
16	0xbe1d6438	-0.15370262
17	0x3b66887a	0.0035176561
18	0x3dcf7de2	0.10131432
19	0x3c84f9d2	0.016232405
20	0xbcc456cb	-0.023967167
21	0x3d98b1c8	0.07455784
22	0x3dfc2a8d	0.123128034
23	0xbd84fe8f	-0.06493866
24	0x3e29bde9	0.16576351
25	0x3d986b61	0.07442356
26	0xbddfb2fa	-0.10922809
27	0xbd9806ea	-0.07423194
28	0xbd4010df	-0.04689109
29	0xbde6f50f	-0.1127721
30	0x3c419aeb	0.0118167205
31	0xbc4e5b48	-0.012595005
32	0x3d4d6dda	0.05015359
33	0x3e5bbb0c	0.21458071
34	0xbddfaa3f	-0.10921144
35	0xbe418836	-0.18899617
36	0xbe06da8d	-0.13169308
37	0x3d991536	0.07474749
38	0xbd45ae7d	-0.048262108
39	0x3e6a0092	0.2285178
40	0xbdaae6a1	-0.0834477
41	0xbc9ce103	-0.019150263
42	0xbcbea2ee	-0.02327105
43	0x3e8870d4	0.2664858
44	0x3d96d91c	0.07365629
45	0xbe1ad782	-0.15121272
46	0x3c1a6f09	0.009425887
47	0xbc998ca7	-0.018743826
48	0x3d1bdb74	0.038051084
49	0x3e7282db	0.2368273
50	0xbc5e9dc7	-0.013587422
51	0x3d1897d3	0.037254166
52	0x3de449ca	0.11146887
53	0xbd1cd9c3	-0.03829361
54	0xbd14e924	-0.036355153
55	0xbdce18f1	-0.10063351
56	0x3d4dd168	0.050248533
57	0xbe0db2f6	-0.138378
58	0xbdf73b16	-0.120718166
59	0xbc1e8900	-0.009676218
60	0xbd029cfa	-0.031887986
61	0x3d0e1922	0.034691937
62	0x3e467b5e	0.19382998
63	0x3e33bc9a	0.17552415
64	0x3d1f2696	0.038855158
65	0x3e08aeed	0.13347979
66	0x3e8751d7	0.26429626
67	0xbe36b871	-0.17843796
68	0xbcc1202b	-0.02357491
69	0x3d317ae9	0.043330107
70	0x3e15813e	0.14600083
71	0xbe0f79ba	-0.14011279
72	0x3c074802	0.008256914
73	0x3e21777a	0.15768233
74	0xbcb34b4f	-0.021886496
75	0xbcf8374b	-0.030299803
76	0xbe10b50b	-0.14131562
77	0xbde0c649	-0.1097532
78	0x3e35de49	0.17760576
79	0xbdafb378	-0.08579153
80	0x3dc77367	0.09738808
81	0xbe523846	-0.20529279
82	0x3dadb3de	0.084815726
83	0xbdaf5d36	-0.085627005
84	0x3e2b1c72	0.1671007
85	0x3e973123	0.29529676
86	0xbd6e045b	-0.058109622
87	0x3e61e770	0.22060943
88	0xbe6eae29	-0.23308624
89	0xbe1c40b6	-0.1525906
90	0xbd8555b3	-0.065104865
91	0xbe494309	-0.19654478
92	0x3e12bb68	0.14329302
93	0x3d8a1260	0.06741786
94	0xbd901b71	-0.07036484
95	0x3e015d82	0.12633327
96	0xbe4b9450	-0.19880795
97	0xbe2c991d	-0.16855283
98	0xbda52d60	-0.08065295
99	0x3d8f7201	0.070041664
100	0xbda53561	-0.08066822
101	0x3b3647eb	0.0027813863
102	0x3d9ee107	0.07757764
103	0x3e1584c8	0.14601433
104	0xbe016621	-0.12636615
105	0x3e05272b	0.13003223
106	0xbd6ee204	-0.058321014
107	0xbe1fab9b	-0.15592806
108	0x3d8d3e16	0.068966076
109	0xbe27a1a7	-0.16370259
110	0xbd9a9d66	-0.075495526
111	0xbd099caf	-0.03359669
112	0x3da74715	0.08167855
113	0x3dae0c02	0.08498384
114	0xbd9ebed5	-0.07751242
115	0x3cc1eee8	0.02367349
116	0xbe3fffeb	-0.18749969
117	0xbe3a6663	-0.1820312
118	0xbdd0bc55	-0.101921715
119	0x3d277243	0.040880453
120	0xbd80c75d	-0.062880255
121	0xbddd1365	-0.10794715
122	0xba95417d	-0.0011387315
123	0x3da04593	0.0782577
124	0x3dce9a64	0.100880414
125	0x3e57ccb3	0.2107418
126	0xbd66cc2e	-0.056347065
127	0xbdf76682	-0.12080099
128	0x3d415ad2	0.047205754
129	0x3d806804	0.062698394
130	0xbce9541c	-0.02848249
131	0xbe083953	-0.13303117
132	0x3db54685	0.08851341
133	0xbc60b28f	-0.013714447
134	0x3db2d40e	0.087318525
135	0xbc992753	-0.018695509
136	0xbd9ec57e	-0.077525124
137	0x3db54ef3	0.08852949
138	0x3d02eb84	0.031962886
139	0x3e0b6e58	0.13616312
140	0x3dc2d83e	0.09513901
141	0x3e4ce0e8	0.2000767
142	0x3e158f9f	0.14605568
143	0x3d78a5bf	0.060704943
144	0x3be6ba50	0.007041253
145	0x3d0b0c19	0.033947084
146	0xbbc059a1	-0.0058700596
147	0x3d689f98	0.056792825
148	0x3cff311d	0.031151349
149	0xbe9af391	-0.3026395
150	0x3dc11d75	0.094294466
151	0x3d41c389	0.047305617
152	0xba09d7ed	-0.00052583107
153	0xbe24d87b	-0.16098206
154	0xbe587b14	-0.211407
155	0xbd9ace12	-0.07558836
156	0xbe1b05bc	-0.15138906
157	0x3e6860f2	0.22693232
158	0xbd4e8e92	-0.050428934
159	0x3dbf30e8	0.093355
160	0x3d51a4d1	0.05118257
161	0xbd96d71d	-0.07365248
162	0x3ca06fd9	0.019584583
163	0x3d94fbb2	0.072745696
164	0x3e35db1e	0.17759368
165	0x3d0dd9f9	0.034631703
166	0xbc0aa7ae	-0.0084628295
167	0x3d4f371f	0.050589677
168	0x3e04444e	0.12916681
169	0xbcbbce93	-0.02292565
170	0x3e34fd9a	0.17674866
171	0x3e9b17a4	0.30291474
172	0x3d7bcfc7	0.06147745
173	0xbd4b58b4	-0.04964514
174	0xbb1658b6	-0.002294106
175	0x3be4e5b9	0.006985393
176	0xbb811ff7	-0.003940578
177	0xbd0ceeb5	-0.034407336
178	0xbd876264	-0.066105634
179	0x3e04cb0f	0.12968086
180	0xbd637428	-0.055530697
181	0xbd772499	-0.060337637
182	0xbe718ada	-0.23588124
183	0xbdf3f0ca	-0.11911161
184	0xbdde96e3	-0.10868623
185	0xbdcba543	-0.099436305
186	0xbd453ffc	-0.048156723
187	0x3da45856	0.08024661
188	0xbe373642	-0.17891791
189	0xbd8599e6	-0.065234944
190	0x3de7c5b0	0.11317003
191	0x3d8009c7	0.06251865
192	0x3cb4f3ca	0.022088904
193	0x3e210bc3	0.15727143
194	0x3d8ef766	0.06980781
195	0xbdebf2c0	-0.1152091
196	0xbd28fcd3	-0.041256737
197	0xbb8a4522	-0.004219667
198	0x3c09aeb4	0.008403469
199	0x3e8ede44	0.2790395
200	0x3df66462	0.12030865
201	0xbd3f4e1d	-0.046705354
202	0xbe4928e8	-0.19644511
203	0xbc6bfb07	-0.014403111
204	0x3e81345f	0.25235268
205	0x3d3086ed	0.043097425
206	0x3e5f0d2d	0.2178237
207	0xbe17aaea	-0.14811292
208	0xbcaa2c31	-0.020773025
209	0xbdea0ee8	-0.114286244
210	0xbcf44aff	-0.029820917
211	0x3e2286e9	0.15871777
212	0x3e28bb94	0.16477805
213	0xbe099357	-0.13435112
214	0xbe209c2b	-0.15684573
215	0xbe0c64fd	-0.13710399
216	0x3ce860ab	0.028366407
217	0xbba4df2e	-0.005031488
218	0x3d4f7d04	0.050656334
219	0x3cdfc156	0.02731387
220	0xbe486fee	-0.19573948
221	0x3e0fd7bd	0.14047141
222	0x3c93ddac	0.018050037
223	0xbe109e9d	-0.14123006
224	0x3d1e0c38	0.03858587
225	0xbd145351	-0.03621227
226	0xbdfb92c2	-0.12283851
227	0xbe0a086a	-0.13479772
228	0xbc8b1970	-0.016979903
229	0xbd7868f7	-0.060646977
230	0x3c6aa5f7	0.014321796
231	0xbb70051d	-0.0036624142
232	0x3d706955	0.058694202
233	0x3e12e155	0.1434377
234	0xbe789ac7	-0.24277793
235	0xbdad1824	-0.0845187
236	0xbcd67f7d	-0.026183838
237	0x3d42bdc7	0.047544267
238	0x3c444776	0.011979928
239	0xbd107b15	-0.03527363
240	0x3cfb649a	0.030687619
241	0xbcd8d287	-0.026467575
242	0x3d343862	0.043999083
243	0x3dfd6290	0.12372315
244	0xbd9618e5	-0.07328967
245	0xbdb47e86	-0.08813195
246	0xbcb8ebba	-0.02257334
247	0xbce95d67	-0.02848692
248	0xbdfdeccc	-0.12398681
249	0xbc558fb6	-0.013034752
250	0x3d9e8471	0.07740105
251	0x3d85649c	0.0651333
252	0x3c974382	0.018464807
253	0xbb8b46db	-0.00425039
254	0xbd42c525	-0.047551293
255	0x398c6b30	0.00026782742

lstm.bias_ih_l0 f4 [128]
0	0xbd056cc1	-0.03257442
1	0xbd65a815	-0.0560685
2	0xbd0c9db0	-0.03433007
3	0xbde1898e	-0.110125646
4	0x3d2c0e63	0.042005908
5	0xbda6a4fe	-0.081369385
6	0xbd875ca5	-0.066094674
7	0x3d7c6af6	0.061625443
8	0x3e0be17b	0.13660233
9	0x3dd2ccc4	0.10292962
10	0x3daba135	0.08380357
11	0x3d14e4db	0.036351066
12	0xbaa58662	-0.001262855
13	0x3d202ec9	0.039107118
14	0xbdafa409	-0.08576209
15	0x3db5251c	0.08844969
16	0xbd2f4352	-0.04278881
17	0xbd2eecfb	-0.04270647
18	0x3d0f63cd	0.035007287
19	0xbcd8cdaf	-0.026465265
20	0xbd7e88a9	-0.062142048
21	0x3d572ce5	0.05253305
22	0xbdf37a05	-0.11888508
23	0x3e126c74	0.14299184
24	0x3cc87bc4	0.024473079
25	0x3c93c6d2	0.01803914
26	0xbdf02872	-0.11726464
27	0x3dd3b4a5	0.103371896
28	0x3c5e8fe2	0.013584109
29	0xbd509cd5	-0.050930817
30	0x3ccdfd24	0.02514512
31	0xbce4bc5a	-0.027921844
32	0xbc8bd3b3	-0.01706872
33	0x3e1b0ef5	0.15142424
34	0x3d63ead8	0.055643886
35	0xbda6e326	-0.08148794
36	0x3cf466cf	0.02983418
37	0xbcafb607	-0.021449102
38	0x3c907624	0.017634459
39	0x3ccf804b	0.02532973
40	0x3d2b5e74	0.041838124
41	0x3d75ce21	0.060011033
42	0x3d8d1303	0.06888392
43	0x3dd70794	0.10499492
44	0xbc6e7936	-0.014555266
45	0x3ce5d5c2	0.02805603
46	0x3e233267	0.15937196
47	0x3d0af648	0.03392628
48	0xbc23fb1c	-0.0100086
49	0xbce3e740	-0.02782023
50	0xbda9a6c0	-0.08283758
51	0xbb351847	-0.0027632879
52	0xbdbbf137	-0.091768675
53	0x3c774684	0.015092496
54	0xbdac539f	-0.08414387
55	0x3c873631	0.016505333
56	0x3dc87a6e	0.097889766
57	0xbda4e3f2	-0.080512896
58	0x39ea8af4	0.00044735486
59	0x3dfdeb2e	0.123983726
60	0xbdad9d55	-0.08477274
61	0xbd0fc80a	-0.03510288
62	0x3dd51607	0.10404592
63	0x3da7abfa	0.08187099
64	0x3cb05a44	0.021527417
65	0xbdb1b657	-0.08677357
66	0x3cbddc5d	0.023176366
67	0xbd0f9ec7	-0.03506353
68	0x3d8ca1c0	0.06866789
69	0xbd8d4b22	-0.06899096
70	0x3d33e0e5	0.043915648
71	0x3cc1f605	0.023676882
72	0x3ca7da9a	0.02048998
73	0xbcd23561	-0.025660219
74	0xbcda4f8d	-0.02664926
75	0xbbaa6556	-0.0052000685
76	0xbe0b4c11	-0.13603236
77	0xbdf44cc7	-0.119287066
78	0xbabfb83b	-0.0014627049
79	0x3d24b4f0	0.040211618
80	0xbdbda8ef	-0.09260737
81	0x3d691116	0.05690106
82	0xbda49c41	-0.080376156
83	0xbd848de1	-0.06472374
84	0x3e08e0dc	0.13367027
85	0x3dc1bbff	0.094596855
86	0xbd951dcd	-0.07281075
87	0x3dbca932	0.09211959
88	0xbcc4f204	-0.024041183
89	0x3bfb5683	0.007670225
90	0xbcb183f8	-0.021669373
91	0x3c3a797d	0.011381504
92	0x3d4a9192	0.049455233
93	0x3de76efb	0.11300465
94	0x3cc1aa40	0.023640752
95	0x3dbbc509	0.09168441
96	0xbd0acb0c	-0.033885047
97	0xbd2cb07e	-0.042160504
98	0xbca7c57c	-0.02047991
99	0x3c59a6e4	0.013284419
100	0x3db21825	0.086960115
101	0xbd92409c	-0.071412295
102	0x3d6962fe	0.056979172
103	0xbb5944fa	-0.0033152686
104	0xbd863872	-0.06553735
105	0xbd5a7702	-0.05333615
106	0xbd798d46	-0.060925744
107	0x3da580cf	0.08081209
108	0x3c2b44f5	0.010453452
109	0x3d9d42b0	0.07678735
110	0x3d9c3499	0.0762722
111	0x3dbbda6b	0.09172519
112	0xbcbfee2e	-0.023429003
113	0x3c005361	0.007832379
114	0xbdce8c7d	-0.1008539
115	0x3d41c49c	0.047306642
116	0xbdda5184	-0.10660079
117	0xbc6f2c0e	-0.014597906
118	0x3da4093a	0.08009572
119	0x3d33a1dc	0.043855533
120	0xbd1997dd	-0.037498344
121	0x3d2a5149	0.041581426
122	0xbcbacda0	-0.022803128
123	0xbcbcaf99	-0.02303295
124	0x3db26504	0.087106735
125	0x3d4e3aec	0.05034916
126	0x3d362e69	0.044477854
127	0x3b870c7f	0.0041213627

lstm.bias_hh_l0 f4 [128]
0	0x3d8e5dc3	0.069514774
1	0x3c7d7977	0.015470854
2	0xbd6181f4	-0.055055574
3	0xbd9346a0	-0.07191205
4	0x3c9d8e03	0.019232756
5	0xbd98ac50	-0.07454741
6	0x3dc6e168	0.097109616
7	0x3d60798e	0.054803424
8	0x3e2d1b79	0.16905011
9	0x3dc09785	0.094039
10	0x3d032d9b	0.032025915
11	0xbb66a83e	-0.0035195495
12	0x3c2339b9	0.009962493
13	0xbd3c0f9c	-0.045913324
14	0xbd9ac93e	-0.07557915
15	0x3c9b8818	0.018985793
16	0xba561b91	-0.000816756
17	0xbd0d364b	-0.034475606
18	0x3c685b6a	0.014181951
19	0xbc83d55f	-0.016092954
20	0xbdca5ca2	-0.098809496
21	0xbd537db4	-0.05163355
22	0xbdb875fc	-0.09006879
23	0x3d65cddb	0.056104522
24	0x3c92de02	0.017928127
25	0x3d882e94	0.06649509
26	0xbd1ece40	-0.038770914
27	0x3d80af5e	0.06283449
28	0xbc9c0eeb	-0.019050082
29	0x3d996c18	0.0749132
30	0xbde5a92a	-0.11213906
31	0xbe0d2dc6	-0.13786992
32	0xbd8ef101	-0.069795616
33	0x3c945e09	0.018111246
34	0xbd88fc0e	-0.066887006
35	0xbd512e36	-0.05106946
36	0x3e036849	0.1283275
37	0xbd9bab29	-0.076010056
38	0xbc3d8ae3	-0.011568758
39	0xbcd9bdab	-0.026579699
40	0x3c571a05	0.013128762
41	0x3e30db5e	0.17271182
42	0x3dac4e5b	0.084133826
43	0x3d725972	0.059167333
44	0xbc7b5ce1	-0.015341968
45	0xbd2f004d	-0.042724896
46	0x3cfaa7fd	0.030597681
47	0xbd45f3cf	-0.048328217
48	0x3db5280b	0.08845528
49	0x3db5a3e0	0.08869147
50	0xbce763ba	-0.028245796
51	0xbde46bc0	-0.11153364
52	0xbc5e13aa	-0.013554493
53	0xbc733a90	-0.014845505
54	0xbbb06129	-0.005382676
55	0x3ce53927	0.027981354
56	0x3dc53749	0.096296854
57	0xbca6469d	-0.020297343
58	0x3dd64967	0.10463219
59	0x3d80d89d	0.06291316
60	0x3bbed49a	0.005823684
61	0xbdb93ea1	-0.09045149
62	0x3d4e42ad	0.050356556
63	0x3dcdb21a	0.10043736
64	0x3db0db72	0.08635606
65	0xbd159ece	-0.0365284
66	0x3de8892b	0.11354288
67	0xbdc83606	-0.09775929
68	0x3d9e2bdf	0.077232115
69	0xbdcb4938	-0.09926075
70	0x3dd20864	0.10255507
71	0xbdd278fb	-0.102769814
72	0x3d9c7588	0.07639605
73	0xbc889017	-0.01667027
74	0xbd87d48d	-0.06632338
75	0xbda270ea	-0.07931693
76	0xbbf41ced	-0.0074497373
77	0xbd8a4000	-0.06750488
78	0x3e011e57	0.1260923
79	0xbd5a21eb	-0.053255003
80	0xbd9a4a94	-0.07533756
81	0xbc7d1860	-0.015447706
82	0x3c7cbab7	0.015425376
83	0x3d6a6cdf	0.057232734
84	0x3d95133f	0.072790615
85	0x3e00def2	0.12585047
86	0xbcf07f2e	-0.029357519
87	0x3a93aa9f	0.0011266059
88	0x3d7e1e49	0.0620406
89	0xbd200834	-0.039070323
90	0x3dcbd464	0.0995262
91	0x3d070fc2	0.032974012
92	0x3d262c52	0.04056961
93	0x3dcff97b	0.101550065
94	0xbd8f039e	-0.06983112
95	0x3e819c40	0.25314522
96	0x3cd037e1	0.02541727
97	0xbdada490	-0.084786534
98	0xbd81a0b0	-0.06329477
99	0x3d683018	0.05668649
100	0xbd760da4	-0.060071602
101	0x3d8ae312	0.067815915
102	0x3e151246	0.14557752
103	0xbceab540	-0.02865088
104	0x3c782fbf	0.015148102
105	0x3ba799b0	0.0051147565
106	0xbd5d0ce8	-0.053967386
107	0xbc85aeaf	-0.016318647
108	0x3da08cdb	0.07839366
109	0x3c37559b	0.0111898435
110	0xbd3e5c5c	-0.0464748
111	0x3bef3c5d	0.007300897
112	0xbe019b6c	-0.12656945
113	0x3e106b32	0.14103392
114	0x3a9890f1	0.0011639876
115	0x3d6749fc	0.05646704
116	0xbe0a4f07	-0.13506709
117	0xbca43cec	-0.020048581
118	0x3d60491a	0.054757215
119	0x3da532f3	0.080663584
120	0x3d09eb7b	0.033671837
121	0xbcef6e99	-0.029227542
122	0x3d187eb1	0.037230197
123	0xbb4314dc	-0.0029767072
124	0x3ce845d3	0.028353607
125	0x3c8a47dd	0.01687997
126	0xbcaa5e48	-0.02079691
127	0xbc945848	-0.018108502

node_attention_linear.weight f4 [1, 128]
0	0x3b92736b	0.0044693253
1	0x3cd54282	0.02603269
2	0xbdecc4d0	-0.115609765
3	0x3dcd9b83	0.10039427
4	0xbe0cd03a	-0.13751307
5	0xbdcd3166	-0.10019188
6	0xbde5b32b	-0.11215814
7	0x3c94c536	0.018160444
8	0x3dac2a8c	0.08406553
9	0x3ddc627c	0.10760972
10	0x3d2642c1	0.040591005
11	0xbde9afe6	-0.11410503
12	0xbdd0989b	-0.10185357
13	0xbda4d804	-0.08049014
14	0x3df5238d	0.119696714
15	0x3cbca054	0.02302567
16	0xbd19322f	-0.037401374
17	0xbd901dca	-0.07036932
18	0xbda538e5	-0.080674924
19	0xbd722b2d	-0.059123207
20	0xbe013408	-0.12617505
21	0x3d18e0a1	0.037323598
22	0x3d1eb031	0.038742248
23	0x3dcf5107	0.101228766
24	0x3dbd2283	0.09235098
25	0xbdd5806d	-0.10424886
26	0xbdada3b8	-0.084784925
27	0x3cbdc070	0.02316305
28	0x3d93e735	0.072218336
29	0xbbb6b66c	-0.0055759456
30	0xbd71f411	-0.05907065
31	0x3d981299	0.07425422
32	0x3da8ad98	0.082362354
33	0xbd7f708a	-0.062363185
34	0xbdfb6d4c	-0.12276706
35	0x3d807f44	0.06274274
36	0xbb85c6ec	-0.004082551
37	0x3dc6b518	0.0970251
38	0xbd25c4b4	-0.040470794
39	0xbc9a9113	-0.018868005
40	0xbd809ea9	-0.06280262
41	0xbd87f311	-0.06638158
42	0xbd0d7d45	-0.034543294
43	0xbd8a4d13	-0.06752982
44	0x3b9dcbb0	0.004815541
45	0x3cd822c1	0.02638376
46	0x3d45a7f0	0.04825586
47	0xbbd50bf8	-0.006501671
48	0x3df71075	0.12063686
49	0xbceb82bf	-0.028748868
50	0xbdc141fc	-0.09436414
51	0x3d158ef8	0.0365133
52	0x3debdf66	0.11517219
53	0x3cd880c3	0.026428586
54	0xbceeef6e	-0.029166903
55	0xbd40cc8f	-0.047070082
56	0x3dd03656	0.10166614
57	0x3bb35f5f	0.0054740156
58	0x3c14495f	0.009050696
59	0xbdd4b79d	-0.10386584
60	0x3df354c9	0.11881406
61	0xbd40cab0	-0.047068298
62	0x3e0e87a3	0.13918929
63	0xb910cb20	-0.0001380858
64	0x3d921308	0.07132536
65	0x3e0c76ed	0.13717242
66	0x3e0bef66	0.13665542
67	0x3db2328b	0.087010466
68	0x3dacf90f	0.08445942
69	0xbdd0a20a	-0.101871565
70	0x3d7adce5	0.061245818
71	0xbcf3708d	-0.029716754
72	0x3d41ddf2	0.047330804
73	0x3dc9c315	0.09851662
74	0xbcc91e2a	-0.024550516
75	0x3e27bbb6	0.163802
76	0x3da95292	0.08267702
77	0xbcc77599	-0.024348067
78	0x3d473702	0.048636444
79	0x3dbd9560	0.09257007
80	0xbdcefdd8	-0.101070106
81	0xbdbcea99	-0.092244335
82	0x3c8b0915	0.016972104
83	0x3b921558	0.004458111
84	0xbde7639b	-0.11298295
85	0x3bfdd797	0.0077466476
86	0x3d52aa74	0.051432088
87	0x3ce4190c	0.027843975
88	0x3cd9d00a	0.026588459
89	0x3dd99d9f	0.10625767
90	0xbb9a7a03	-0.004714252
91	0x3d4d94e1	0.05019081
92	0xbbd94b4a	-0.0066312896
93	0xbc801b17	-0.015637917
94	0x3daac5fc	0.08338544
95	0xbd6cb9c7	-0.05779436
96	0x3dfc9e8a	0.123349264
97	0x3d964501	0.0733738
98	0xbe0b5859	-0.1360792
99	0xbd6a5958	-0.05721411
100	0xbd4086fe	-0.04700374
101	0x3d521ffe	0.05130004
102	0x3d2ed01e	0.042678945
103	0x3ca5e0b9	0.020248758
104	0xbd40a835	-0.047035415
105	0xbc7776c0	-0.015103996
106	0x3d96be3f	0.07360505
107	0x3de0bd1c	0.1097357
108	0xbcf58766	-0.02997179
109	0xbdbf5437	-0.093422346
110	0xbdb5689b	-0.088578425
111	0xbd9e29be	-0.077228054
112	0xbbdad60e	-0.0066783493
113	0x3d4c86d8	0.049933285
114	0x3d30e232	0.043184467
115	0xbd6cf0ce	-0.057846837
116	0xbd801f2c	-0.062559456
117	0xbc3b3759	-0.01142677
118	0x3e18a937	0.149083
119	0xbbc817a2	-0.006106333
120	0xbcbeba54	-0.023282208
121	0x3cf3a8da	0.0297436
122	0x3c3c59ae	0.011495991
123	0xbe2160bc	-0.15759557
124	0xbc4608ac	-0.0120870285
125	0xbd050fd2	-0.03248579
126	0xbd18a863	-0.03726996
127	0xbd25e895	-0.04050501

path_attention_linear.weight f4 [1, 128]
0	0xbe06eef5	-0.13177092
1	0x3c689dbf	0.014197766
2	0xbe532dff	-0.20623015
3	0x3e15d8fe	0.14633557
4	0x3dbd494f	0.09242498
5	0xbe2d6ca8	-0.1693598
6	0x3cb08ae8	0.02155061
7	0xbdf5f5c8	-0.1200977
8	0x3c7e3a90	0.015516892
9	0x3d0368e1	0.032082442
10	0x3d51eda9	0.05125204
11	0xbdad4bd5	-0.084617294
12	0xbe22a07f	-0.15881537
13	0xbce15a99	-0.02750902
14	0xbe21dea9	-0.15807594
15	0xbd1e6e63	-0.03867949
16	0x3c10ce0a	0.008838186
17	0x3d7b1de0	0.061307788
18	0x3d1941e9	0.037416372
19	0x3e27d45a	0.163896
20	0xbe67a7a1	-0.22622539
21	0x3d439ba4	0.047755852
22	0x3dc3644c	0.095406145
23	0x3e1897fb	0.14901726
24	0xbdd15f1b	-0.10223218
25	0x3d54b35c	0.051928863
26	0x3e3b15bb	0.18270008
27	0x3dae4441	0.08509112
28	0xbd553dd7	-0.05206093
29	0xbd3bfb8c	-0.04589419
30	0xbdac5cd1	-0.08416141
31	0x3c91596f	0.01774284
32	0xbe22e826	-0.1590887
33	0xbd13ba8a	-0.03606657
34	0x3e717d0c	0.23582858
35	0x3e012928	0.12613356
36	0xbe773f89	-0.2414533
37	0xbd767c32	-0.060177036
38	0x3db785ec	0.089610904
39	0xbdf9cd87	-0.12197404
40	0x3d4a1928	0.049340397
41	0x3e17755d	0.14790864
42	0x3e34a95d	0.17642732
43	0xbd381609	-0.04494289
44	0x3e00649f	0.12538384
45	0x3de2ae89	0.11068446
46	0xbe92cc01	-0.28671268
47	0x3db728e2	0.08943345
48	0xbddf68c9	-0.10908658
49	0xbdd9dc01	-0.106376655
50	0xbe058c71	-0.13041855
51	0x3e2856b8	0.1643933
52	0xbdf16a03	-0.11787798
53	0x3e2f996f	0.17148374
54	0x3e44d2e2	0.1922107
55	0xbdc36475	-0.09540645
56	0xbdfc8474	-0.12329951
57	0x3e4e9936	0.20175633
58	0x3dc883a7	0.09790736
59	0xbd5989c9	-0.053109918
60	0x3e872199	0.2639282
61	0x3d7c0894	0.06153162
62	0x3d23f4a8	0.040028244
63	0xbe23b4bf	-0.15986918
64	0xbe81cbe9	-0.25350884
65	0xbdab8d1e	-0.08376525
66	0x3d8dce89	0.06924159
67	0x3e1363d6	0.14393553
68	0xbe1fff10	-0.15624642
69	0xbe1788d6	-0.14798293
70	0xbccd95f4	-0.025095917
71	0x3c7b9585	0.015355472
72	0xbea70217	-0.32618782
73	0xbd394427	-0.04523101
74	0x3ab1ca42	0.0013564306
75	0xbe2893a2	-0.16462567
76	0x3e2784c3	0.16359238
77	0xbad416cd	-0.0016181112
78	0x3da78c8e	0.081811056
79	0x3df282b1	0.11841334
80	0xbd78175e	-0.06056916
81	0x3d756fb4	0.05992098
82	0xbe49f835	-0.1972359
83	0xbdbbc166	-0.09167747
84	0xbdbed0a6	-0.0931714
85	0x3dc95fd8	0.09832734
86	0x3d6b7c03	0.057491314
87	0xbe4ab57f	-0.19795798
88	0x3de1f7d9	0.11033601
89	0x3d0fbec2	0.03509403
90	0x3e24d2fa	0.16096106
91	0xbd59fd85	-0.05322029
92	0xbd9a681e	-0.0753939
93	0xbcc892b5	-0.024484018
94	0x3d7653db	0.060138565
95	0x3ca7d416	0.020486873
96	0x3db4e8cc	0.08833465
97	0x3e1d3ae4	0.15354496
98	0xbca0639d	-0.01957875
99	0xbe1e9f41	-0.15490438
100	0xbd7b7b37	-0.061396804
101	0x3e3fa0de	0.1871371
102	0xbe63448d	-0.22194119
103	0xbe983b7c	-0.29732883
104	0x3d7988cb	0.06092147
105	0xbe0bea15	-0.13663514
106	0x3e4b9a8d	0.19883175
107	0x3e605dcd	0.21910782
108	0xbdc23477	-0.09482663
109	0x3e581ecb	0.21105497
110	0x3d7cdba4	0.061732903
111	0xbdfa7a43	-0.12230351
112	0xbe91fcb6	-0.28513116
113	0xbe0b2e7d	-0.13591953
114	0xbd9efee1	-0.07763458
115	0x3e0a5eaa	0.13512674
116	0x3e028add	0.12748285
117	0x3e14703b	0.14495938
118	0xbdfe7d51	-0.12426246
119	0x3d550916	0.05201062
120	0x3e169562	0.14705423
121	0xbd8b7749	-0.06809861
122	0xbe825b1d	-0.2546014
123	0x3d8186f2	0.06324567
124	0xbd94cec9	-0.07266004
125	0xbddd52f4	-0.10806838
126	0xbd766886	-0.060158275
127	0x3e234ee8	0.15948069

hidden_linear.weight f4 [128, 128]
0	0xbdd03d63	-0.101679586
1	0x3d9faf10	0.077970624
2	0xbd8c4644	-0.068493396
3	0x3db19792	0.08671488
4	0xbd88757b	-0.066630326
5	0x3db4d4d9	0.0882966
6	0x3c43659c	0.011926081
7	0xbd6ab4de	-0.057301395
8	0xbdaa941b	-0.0832903
9	0xbd8f6ecc	-0.07003555
10	0xbda1a877	-0.0789346
11	0x3dc188ba	0.09449907
12	0xbb94c4d0	-0.0045400634
13	0x3d59c94b	0.053170484
14	0xbd1df4f8	-0.0385637
15	0x3c913583	0.017725712
16	0xbcacd80c	-0.021099113
17	0xbbf60095	-0.0075073936
18	0xbd9b8a13	-0.07594695
19	0xbdf6741b	-0.12033864
20	0x3d378448	0.044803888
21	0x3d64fd83	0.05590583
22	0xbdc76e5d	-0.09737847
23	0xbdc2f2a5	-0.09518937
24	0x3d221cfa	0.039578415
25	0xbd61291d	-0.05497085
26	0xbb9caf2b	-0.004781624
27	0x3d142b94	0.03617437
28	0x3c3f3d22	0.01167229
29	0xbc8adb83	-0.016950374
30	0xbbfbb56b	-0.007681539
31	0xbd9d9921	-0.07695223
32	0xbd64a15d	-0.05581795
33	0xbae697a4	-0.00175928
34	0xbdbb98a8	-0.09159976
35	0x3dac3230	0.0840801
36	0xbd3cebbc	-0.04612325
37	0xbda8f3cf	-0.08249628
38	0xbdced07a	-0.100983575
39	0x3da5f6e7	0.081037335
40	0xbd89c1b7	-0.06726401
41	0xbdd57758	-0.10423154
42	0x3dd01d97	0.10161894
43	0xbc829697	-0.015940947
44	0xbe0c4825	-0.13699396
45	0x3cdefdb9	0.027220594
46	0xbde37422	-0.11106135
47	0xbcf6ea5d	-0.03014105
48	0xbcfc3375	-0.030786255
49	0xbb654552	-0.0034983945
50	0xbd0ac121	-0.03387559
51	0xbc88d9ac	-0.016705357
52	0xbd3efba4	-0.046626702
53	0xbd2dfd6f	-0.04247802
54	0xbdbbcffa	-0.09170528
55	0xbd39fb1a	-0.045405485
56	0x3d03a841	0.03214288
57	0x3c8130a1	0.015770258
58	0x3ca0adea	0.019614179
59	0x3dc1bc89	0.09459788
60	0x3dd2d414	0.10294357
61	0xbd6ecdcd	-0.058301736
62	0x3dcd8d73	0.10036745
63	0x3d3134bd	0.043263186
64	0x3cf3ec7d	0.029775852
65	0x3d04f670	0.032461584
66	0xbbb94503	-0.005653979
67	0xbc13e065	-0.009025668
68	0x3da30340	0.07959604
69	0x3db4566d	0.08805547
70	0x3cda38ec	0.02663847
71	0xbe011301	-0.12604906
72	0xbd245b65	-0.040126223
73	0x3c4384d3	0.011933523
74	0xbbbfcbdc	-0.0058531594
75	0xbdb123f9	-0.08649439
76	0xbcb94867	-0.022617532
77	0xbc877dbb	-0.016539445
78	0xbdbf32f1	-0.09335888
79	0x398f607a	0.00027346966
80	0x3dc094cb	0.0940338
81	0xbc93ea84	-0.018056162
82	0x3d72702d	0.05918901
83	0x3d3601d4	0.044435337
84	0xbb5b61e9	-0.0033475107
85	0x3da091de	0.07840322
86	0x3d037b75	0.03210016
87	0x3e037401	0.1283722
88	0xbd94ed6e	-0.072718486
89	0x3cf19892	0.029491697
90	0x3cd53e50	0.02603069
91	0x3bc66b04	0.0060552377
92	0xbd2aa2e5	-0.041659255
93	0x3b08cd29	0.0020874238
94	0x3dc2d7f4	0.09513846
95	0x3d47cbf7	0.0487785
96	0x3aec402d	0.0018024497
97	0x3bd0e768	0.006375242
98	0xbda28c94	-0.079369694
99	0xbd5b2189	-0.05349878
100	0x3d11dd23	0.035611283
101	0xbcf80b62	-0.030278865
102	0xbd1ed311	-0.038775507
103	0xbcced058	-0.02524583
104	0x3d8d9e4c	0.06914958
105	0x3b4d2aff	0.0031306145
106	0x3d9b972d	0.07597194
107	0x3bf6eeb7	0.0075357812
108	0xbd808cbc	-0.06276843
109	0xbd440bb7	-0.047862735
110	0xbdd251ba	-0.10269494
111	0xbb843216	-0.004034291
112	0xbd10ca65	-0.03534927
113	0x3dc5acdd	0.09652112
114	0xbd5b3dc5	-0.053525705
115	0xbd434379	-0.04767177
116	0x3cad57d1	0.021160038
117	0xbb0ba75c	-0.002130947
118	0xbd147d21	-0.036252145
119	0x3d42c3b6	0.047549926
120	0xbd50fe31	-0.051023666
121	0xbd86ccda	-0.06582041
122	0x3daf48d3	0.08558812
123	0xbe13f2aa	-0.14448038
124	0x3d9a26cf	0.075269334
125	0x3de0df00	0.10980034
126	0x3d78f0e5	0.06077661
127	0xbd7fc86d	-0.062447
128	0x3d093d08	0.03350547
129	0xbd470906	-0.04859259
130	0x3d5a4c16	0.053295217
131	0xbd7eb001	-0.06217957
132	0x3d932e5e	0.07186578
133	0x3cfee10f	0.031113176
134	0xbcb5620d	-0.02214148
135	0x3ce8d5a6	0.028422188
136	0xbd65e099	-0.056122396
137	0xbd6c0e5a	-0.057630874
138	0x3da6c9b3	0.0814394
139	0x3ccd7b03	0.02508307
140	0x3d2fd260	0.04292524
141	0xbd30d42a	-0.043171085
142	0x3befb3f7	0.0073151547
143	0xbd4a540a	-0.049396552
144	0x3a46ae3a	0.00075790624
145	0x3d8e5cea	0.06951316
146	0x3d5fa413	0.054599833
147	0x3cfa32ed	0.030541861
148	0xbd5f1ac6	-0.054468893
149	0x3cc9e8aa	0.024647076
150	0xbd884cb2	-0.066552535
151	0x3d6b32be	0.05742144
152	0x3c532015	0.012886067
153	0xbd8c7a6f	-0.0685929
154	0xbc3761d8	-0.011192761
155	0x3d6b098c	0.05738215
156	0xbd3f4663	-0.046697985
157	0x3d82ad9b	0.06380769
158	0xbd73c7de	-0.05951678
159	0xbd9bfdcd	-0.07616768
160	0x3becd1d9	0.007227164
161	0x3d04d64a	0.032430924
162	0x3d7166f0	0.05893606
163	0x3dc39e53	0.09551682
164	0x3d44100b	0.047866862
165	0x3d89d270	0.06729591
166	0x3cf2e84a	0.02965178
167	0x3d85082b	0.064956985
168	0xbd234f31	-0.039870445
169	0xbc7d515f	-0.015461295
170	0x3c9ce4e5	0.019152114
171	0xbc19de53	-0.009391385
172	0x3c97dcef	0.018537967
173	0x3ced70d1	0.02898446
174	0xbd6b7c7b	-0.05749176
175	0x3d5ef245	0.054430265
176	0x3d3f05f5	0.04663654
177	0x3c517bb7	0.012785844
178	0xbcdfb770	-0.02730915
179	0xbaf5ed05	-0.0018762654
180	0xbd065c3e	-0.032802813
181	0xbdaeb1f6	-0.08530037
182	0x3d93e7f7	0.07221978
183	0x3b24e96d	0.0025163547
184	0x3c9bce37	0.01901923
185	0xbca6be52	-0.020354424
186	0xbdb72225	-0.089420594
187	0xbc6aab08	-0.014323004
188	0xbbcc3e1b	-0.0062329895
189	0xbc995c05	-0.018720636
190	0x3d72821a	0.059206106
191	0x3d259bf2	0.040431924
192	0x3c849af1	0.016187163
193	0xbd2da5a5	-0.0423943
194	0xbd80e8c0	-0.062943935
195	0x3d3786ac	0.044806167
196	0x3d1fab2c	0.0389816
197	0x3dcc97cb	0.0998989
198	0x3b998824	0.0046854187
199	0xbd76e0b5	-0.06027289
200	0x3c642221	0.013924153
201	0xbd384fb0	-0.04499787
202	0xbb784187	-0.0037880854
203	0x3dad1008	0.08450323
204	0x3a8cbb3a	0.001073695
205	0x3c0205cd	0.007935953
206	0x3c70b27c	0.0146909915
207	0xbc6b46d0	-0.014360145
208	0xbd76e9ea	-0.06028167
209	0xbd2f6d52	-0.042828865
210	0xbcbbc4dc	-0.022921018
211	0xbccf79db	-0.02532666
212	0xbd7769fc	-0.06040381
213	0xbd99de3f	-0.07513093
214	0xbc4b319f	-0.012401967
215	0x3d3e3b12	0.046443053
216	0xbcbb6396	-0.022874635
217	0x3d140206	0.036134742
218	0xbd9e1e09	-0.077205725
219	0x3cef1951	0.029186876
220	0x3d871c80	0.06597233
221	0xbd11d83c	-0.035606608
222	0x3d9da17e	0.07696818
223	0x3cf749d8	0.030186579
224	0x3d356c02	0.044292457
225	0x3d2199d3	0.03945334
226	0xbd3415ad	-0.043965984
227	0x3d854702	0.06507684
228	0xbcf62fdd	-0.03005212
229	0xbc9e326f	-0.019311158
230	0xbd544d32	-0.05183143
231	0x3d8af7f8	0.067855775
232	0x3daad678	0.08341688
233	0xbd8852ba	-0.06656404
234	0xbd45228e	-0.048128657
235	0xbc5f3441	-0.013623298
236	0x3d877456	0.06613986
237	0xbc9236b6	-0.017848354
238	0xbcf5bc0a	-0.02999689
239	0x3db1c951	0.08680976
240	0xbd3c1d57	-0.04592642
241	0xbd67bd92	-0.056577273
242	0xbd123c27	-0.035701897
243	0x3d23a177	0.039948907
244	0x3d7a22d1	0.06106836
245	0x3cce01de	0.025147375
246	0xbbb0796d	-0.005385569
247	0x3d8384fe	0.064218506
248	0xbc00d5bd	-0.007863459
249	0xba2a0aee	-0.0006486614
250	0xbd49f22c	-0.04930322
251	0xbd8e7a0d	-0.06956873
252	0x3d7e9782	0.062156208
253	0x3d79b4c1	0.060963396
254	0x3c8f4ffa	0.01749419
255	0x3a11c18a	0.00055601506

hidden_linear.bias f4 [128]
0	0xbdecfc24	-0.115715295
1	0xbd88d9f6	-0.06682198
2	0x3aee6cd0	0.0018190388
3	0x3bea496f	0.0071498672
4	0x3a18b8cc	0.0005825877
5	0x3995eaaf	0.00028594348
6	0x3d1f9340	0.038958788
7	0x3d104c76	0.03522917
8	0xbd4806cf	-0.04883462
9	0xbd0474c5	-0.032337923
10	0xbd80062f	-0.062511794
11	0x3cc2d05e	0.023780998
12	0x3d034345	0.032046575
13	0xbcb63ee2	-0.022246782
14	0x3cbffb24	0.023435183
15	0xbd89155d	-0.06693528
16	0xbd360d59	-0.044446323
17	0x3d1a6c4a	0.03770093
18	0x3d9bcba4	0.07607201
19	0xbc9cbabe	-0.019132014
20	0xbdd694a6	-0.10477571
21	0x3ce56239	0.028000938
22	0xbdbc350d	-0.09189806
23	0xbd8ce34c	-0.06879291
24	0x3bf11524	0.0073572565
25	0x3d4299e5	0.047510047
26	0xbdadb4aa	-0.084817246
27	0xbd3abe5f	-0.04559171
28	0x3c463bc2	0.012099208
29	0xbc889432	-0.016672228
30	0x3cd80502	0.026369575
31	0x3c2da1a4	0.01059762
32	0xbd7530b6	-0.059860907
33	0x3dab2f2c	0.08358607
34	0xbd5fe662	-0.05466307
35	0xbc720018	-0.01477053
36	0xbdcd6053	-0.10028138
37	0x3d252f5c	0.04032837
38	0x3cc33c68	0.023832515
39	0xbdae612a	-0.08514626
40	0x3d452a22	0.048135884
41	0xbd05ea0a	-0.0326939
42	0xbd2f9307	-0.042864826
43	0x3c94eac1	0.018178346
44	0x3d0e5bd8	0.034755558
45	0xbbb0f57e	-0.0054003587
46	0x3c58c695	0.013230939
47	0xbc0be46c	-0.008538347
48	0xbdcb7fe7	-0.09936505
49	0xbd5b7d0f	-0.053586062
50	0xbcb4d84f	-0.0220758
51	0xbb2faa7b	-0.0026804495
52	0x3e0b45a3	0.13600783
53	0xbd96af05	-0.07357601
54	0x3de88ccb	0.11354979
55	0xbd9c0603	-0.07618334
56	0xbdaad107	-0.0834065
57	0x3d3318c0	0.043724775
58	0xbc9f17d7	-0.019420547
59	0xbcbd3f0b	-0.02310135
60	0xbd00c592	-0.031438418
61	0x3cb220d8	0.021744177
62	0x3cc1d7ca	0.023662467
63	0x3d4d7940	0.05016446
64	0xbce68003	-0.028137213
65	0x3d30737b	0.04307888
66	0x3ddda7ac	0.108229965
67	0x3d9f5e0c	0.0778161
68	0x3ccbaa78	0.02486156
69	0x3da31d0d	0.07964525
70	0xbd8bd2fa	-0.0682735
71	0xbd0b16c3	-0.033957254
72	0x3c3a2bc9	0.011362978
73	0x3d498613	0.04920013
74	0x3d7feb2d	0.06248014
75	0x3d5acbce	0.05341702
76	0xbc8517b1	-0.016246649
77	0x3ce8e4a8	0.028429344
78	0x3dd46daa	0.10372479
79	0xbbc233bd	-0.005926578
80	0x3b80998b	0.0039245537
81	0x3ddee31f	0.10883164
82	0xbd654181	-0.055970673
83	0xbd81eb66	-0.06343727
84	0xbc6042a7	-0.013687766
85	0xbce3eb83	-0.027822262
86	0xbca175b3	-0.019709444
87	0xbd61e052	-0.05514557
88	0x3cdd188f	0.02698925
89	0x3d5fe153	0.054658245
90	0xbd4737c5	-0.04863717
91	0x3dbe8d7e	0.09304331
92	0x3c9761a1	0.01847917
93	0x3d334ade	0.04377257
94	0x3d896c2b	0.067100845
95	0xbd4b6798	-0.04965934
96	0xbd6e01d2	-0.058107205
97	0xbda9c8fa	-0.08290286
98	0xbdc1fbdd	-0.09471867
99	0x3ceda331	0.02900848
100	0x3da497e5	0.08036784
101	0xbd5db8fc	-0.054131493
102	0xbcf473ae	-0.029840317
103	0xbca68d82	-0.020331148
104	0x3db84751	0.089979775
105	0x3de75cce	0.11296998
106	0xbd026852	-0.03183777
107	0x3d3551e9	0.04426757
108	0x3be50e6d	0.006990245
109	0x3d0b6bf6	0.034038506
110	0x3dc0ea02	0.094196334
111	0xbd08e3f3	-0.033420514
112	0xbd97ea14	-0.07417694
113	0x3b8c582c	0.004282972
114	0x3d183063	0.03715552
115	0xbd4d97ba	-0.050193526
116	0xbd28eb64	-0.04124011
117	0xbd5d14ae	-0.0539748
118	0xbcbc1c06	-0.022962581
119	0xbd2f2811	-0.04276282
120	0x3e0ca337	0.13734137
121	0xbdb6584d	-0.08903561
122	0xbc9faeb1	-0.019492479
123	0xbd8fb72f	-0.070173614
124	0x3d0e19ab	0.034692448
125	0x3d6fe123	0.058564316
126	0xbd0f081c	-0.034919843
127	0x3d50fced	0.05102246
